HW1/model.pth (torch, 447720 bytes, 8 tensors)

fc1.weight f4 [16, 6912]
00000000: a9ec 9fbc 1f00 52bd 332c aabd 9a76 69bd
00000010: 0fe8 14bd 3e97 0ebd d434 85bc a27b daba
00000020: 2d99 d1bc 38b1 8dbc 8580 2439 0ede 193b
00000030: 39c0 193d 1052 933c 519b 6cbc 58f7 febc
00000040: 1117 9439 02d7 93bb b6f8 0ebd 6275 04bd
00000050: fa2e 0abd 7ff8 4fbc aa2d e1bb 47bb f1bb
00000060: c8cf 90bb 33b5 b6bc 75b9 85bb 999d 32b9
00000070: b063 903c d040 2ebc 48dc a0bb 6d2f 093c
00000080: ab17 b3bc 891c 8cbc 23ce c4bc 06e3 2fbc
00000090: 7d56 213c 29cf 2f3c f077 5c3b 4cdf c8bc
000000a0: 9188 69bc 3d1f 25bd b01b 7fbc 0ad7 d3ba
000000b0: d0ba 393c e407 a23c e712 e23c 0424 863b
000000c0: 6f99 0bbc e4b2 7fbd efd1 2bbd 3804 e7bc
000000d0: 4fa7 20bc 3c0c fb3b 3257 0a3d 38bb ae3c
000000e0: 08cd f8bb 967f 883c a18f aa3c e616 9e3c
000000f0: 1edc 743c d4e9 8e3c 2a75 183d 50b9 d33c
00000100: a641 833c 2c80 76bb 40e8 98bc 7000 84bb
00000110: 7c21 d43b a054 ae3c 6a38 a03c d51f 41bc
00000120: d8bf f0bb 39d2 02bc a028 793c 7b90 fd3c
00000130: 9425 bc3c 44c1 f03b 5d58 c43c 229d d6bb
00000140: 438b 3d3b 4288 2d3c f5c3 363d 3297 103b
00000150: c235 fa3b 3589 8dbc e583 3f3b fd7a d73c
00000160: 0b6b 903c f09f 11bd 8d22 debc 3b15 b4bb
00000170: d830 e83b 0be3 11bc f98f 933c a6d6 fa3c
00000180: 0f9d 79bb 06c4 55bd 867b 21bd 233c bebb
00000190: 987a 123c a1cf 773c 2904 a53b cafd 81bc
000001a0: 7923 bbbb 2242 d0bc 2204 143c 1b7b f9bc
000001b0: b93f 97bd e0b3 a5bc d7ef 5b3d 3b1a b33c
000001c0: 6faa 06bc bec4 6fbc 9e0a a0bc ea2a c23c
000001d0: 7f9e 7f3b f10b 50bc cdff a1bc 26fd 6dbc
000001e0: 71d3 a6bc e33f bc3a f1c0 5bbc 1cd5 73bc
000001f0: 3cb2 c0b9 03b9 1e3c 9a49 0c3d f532 f13c
00000200: f739 4e3b 1342 fdba d4d0 9d3c 31fa 963c
00000210: 051f 14bc 9dbc 38bd d749 f8bc fabf 663c
00000220: e88d 283d adac e6bb 4303 1d3c 601e 423b
00000230: abf4 993c 6d9d 14bc c00a 27bd a397 683c
00000240: b7b1 7a3c db57 19bb 23b7 ff3b 8e53 b63b
00000250: 7087 8b3c fa9d df3c 181a 6d3c 5e6b 953b
00000260: 2150 f5bc 5b65 1cbd a6ac 2ebd 6900 0bbd
00000270: 278a 8abc 0150 4f3c 8f61 a53c 30d7 95bc
00000280: c61c 77bc 0b64 d0bc 2abc 3c3c 6177 f83c
00000290: 7fdd 0f3d 17ca 63ba 6708 24bc 85da 253c
000002a0: 8d8e be3b 2dc1 373d ab9c 8b3c 4416 a5bc
000002b0: f246 8cbc ec8a 1a3b 976c 013d c04c cf3c
000002c0: 5fde 973b 0c79 edb7 03b4 493c 7138 743c
000002d0: 4b7b 69bb 2bcc 193c eb34 c7bc 4de2 e239
000002e0: 1526 6f3d 26d1 ce3c a4da 6b3b e841 9e3c
000002f0: ac70 9c3a 2568 ca3c 65d4 0bbc f26b e738
00000300: e8f8 8e3c 60eb a53c ecc2 9f3c eff0 063c
00000310: 48f6 393b 0827 4b3c 0dbc b43c 41fa babc
00000320: 31b3 80bc 3fa4 50bc 9a2d d1bb 08b1 31bd
00000330: e1da 0dbc 8b35 ac3c 7100 96ba 3e42 abbc
00000340: ec36 dd3c 5e40 163d 0f41 b63c afbb 463c
00000350: 7853 ca3c 486a 753c ba22 623c c389 453b
00000360: ec16 85bc 0620 18bd f33a 72bc 11a9 9ebb
00000370: 3e52 92bb a3bd 573c 275e 0d3c a01b c9bc
00000380: da1b 3abc db72 64bc 8439 b43c 1131 02bc
00000390: fdf9 bb3b 6b42 4d3c a754 0abc 7e00 40bc
000003a0: 45be 873c 6a96 a43c 001e 583b 8aee 1a3c
000003b0: e57f a6ba 5eec 713c 072b e63b 3313 d33a
000003c0: 3ad8 063d 4bfc 113d e2cd db3c 25f8 5f39
000003d0: 583b b5bc 37ed 81bc b57c 4b3c b739 9fbc
000003e0: d0c1 c43c 5dd1 f03c e7d1 633c fda1 64bc
000003f0: db41 b4bb fc3a 18bc 092b d7bc fcef d73c
-0.019522028 -0.051269647 -0.083092116 -0.056997873 -0.03635412 -0.034812205 -0.016260542 -0.0016668926
-0.025585735 -0.017296419 0.00015688136 0.0023478302 0.037536833 0.017983466 -0.014441327 -0.031123802
0.00028245946 -0.004511715 -0.034905158 -0.032338507 -0.033736207 -0.012693523 -0.0068718987 -0.0073770615
-0.0044193007 -0.0223032 -0.004080946 -0.00017034113 0.01762566 -0.01063557 -0.004909072 0.008373124
-0.021861872 -0.01710345 -0.024024075 -0.010735279 0.009847281 0.010730543 0.0033640824 -0.024520539
-0.014253751 -0.040312994 -0.015570566 -0.0016162109 0.0113360435 0.019779153 0.027596904 0.004093649
-0.008520468 -0.062426463 -0.041948255 -0.028200254 -0.0098055145 0.0076613706 0.033774562 0.021329507
-0.007592801 0.0166624 0.02082044 0.019298028 0.014945058 0.017445482 0.03722111 0.0258452
0.016022515 -0.0037613017 -0.018665433 -0.0040283725 0.006473718 0.021280587 0.01955815 -0.0117873745
-0.0073470883 -0.007984691 0.01520744 0.030952683 0.022967137 0.007347258 0.023967916 -0.0065494934
0.0028922118 0.010591568 0.044620473 0.0022062776 0.007635803 -0.01727734 0.0029222902 0.026303763
0.017629167 -0.03555292 -0.027116084 -0.005495695 0.0070859008 -0.008904229 0.018012987 0.03061993
-0.0038088 -0.052188896 -0.03942444 -0.0058055087 0.008940361 0.015125186 0.0050358963 -0.015868086
-0.005711016 -0.02542216 0.009034188 -0.03045421 -0.07385201 -0.020227373 0.053695526 0.021863094
-0.0082193455 -0.014634309 -0.019536313 0.023702104 0.0039004383 -0.01269816 -0.019775296 -0.014525687
-0.020364495 0.0014362301 -0.0134127 -0.014882352 -0.0003675389 0.009687665 0.03424988 0.029443244
0.0031467655 -0.001932206 0.019264616 0.018429847 -0.009040599 -0.04510175 -0.030308647 0.014083857
0.041150957 -0.0070396275 0.009583297 0.0029620156 0.018793425 -0.009070736 -0.040781736 0.014196309
0.01530116 -0.0023398313 0.007803814 0.0055641597 0.017032355 0.027297009 0.014471553 0.0045599183
-0.029945435 -0.038182598 -0.04264512 -0.033935938 -0.01691158 0.012653352 0.020188121 -0.018291086
-0.015082544 -0.02543833 0.011519471 0.030330362 0.035123345 -0.00086894765 -0.010011769 0.0101229
0.005815333 0.04486196 0.017042479 -0.020152219 -0.017123673 0.002358134 0.0315977 0.025305152
0.004634663 -2.8308968e-05 0.012310985 0.014906035 -0.0035626467 0.009387056 -0.024317225 0.00043274686
0.058385927 0.025246214 0.0035988474 0.019318536 0.0011935434 0.024707863 -0.0085345255 0.00011035045
0.017452672 0.020253837 0.019502126 0.008236154 0.0028375555 0.0123994425 0.022062326 -0.022824408
-0.015710445 -0.012734472 -0.00638361 -0.04338172 -0.008658142 0.021021625 -0.0011444223 -0.02090561
0.027003728 0.03668248 0.02224782 0.012129708 0.024698004 0.014978953 0.013802225 0.0030141927
-0.016246282 -0.037139915 -0.014784562 -0.0048419316 -0.0044653704 0.0131677715 0.008628405 -0.024549305
-0.011359179 -0.013943399 0.022000082 -0.007946269 0.005736588 0.012528042 -0.008443034 -0.011718867
0.01657022 0.020091254 0.0032976866 0.009456286 -0.001270291 0.014765827 0.007024172 0.0016103744
0.032921053 0.035640996 0.026831571 0.00021359378 -0.022123024 -0.015860183 0.012419869 -0.0194367
0.024018198 0.029396707 0.013905025 -0.013954637 -0.0055010146 -0.009291407 -0.026265638 0.02635955

fc1.bias f4 [16]
00000000: e4d0 183d 38d0 203e b5f9 ee3d b3f2 7abe
00000010: 319d a73d ab8a 883e 7a47 8ebb 5c8d d0bd
00000020: e0be 853d ae10 273e 6adb 02be 411f 123d
00000030: 0cbe 33bc f9e9 9f3d c7ac 21bc f368 6d3d
0.03730859 0.15704429 0.116687216 -0.24506645 0.08184279 0.26668295 -0.0043420168 -0.10183212
0.06530547 0.16314957 -0.12779012 0.035674337 -0.010970604 0.078082986 -0.0098678535 0.057961415

fc2.weight f4 [16, 16]
00000000: 564a a8be acd5 85be 8d3b 883d 5008 b33d
00000010: dd9a 90be a5bb 5bbe afed 5a3e 7ecf d33e
00000020: 0703 fd3e 7bf6 b6be 0e60 29be 09e3 c83e
00000030: ccbd 323e d36c c7be 8b2e f9bc 39a9 83be
00000040: b673 08be 53e8 923e b608 e6be a5e0 413d
00000050: 54fd 7ebd 7225 1e3d 0f38 263e 8864 be3d
00000060: 10ba e6bd 5613 7abe dd59 8c3d 65f2 4f3e
00000070: dbd2 af3e 8e77 223d 3cc3 b33e 7fce 1dbe
00000080: fafc 613e fef2 66be ca3f 8b3d 758a 2fbe
00000090: 2af4 80be b763 6f3e d730 f13e b38e c83d
000000a0: 1a5e d03e 675b 53be 7384 1f3e 37b3 58be
000000b0: 4cdd 713e 87ce ee3e d236 f9bd c1b9 4ebe
000000c0: 4d61 483e 6277 c3bd 2796 1f3f cc26 01be
000000d0: d95d b0bd 914b e93e 731f 8dbe f0f5 f3bd
000000e0: 6f01 adbc fa24 ef3e 1bb9 8f3e 6459 8fbd
000000f0: 5110 b63e ea8e 99be 78ce 7abe 7532 1d3e
00000100: c6fb 88be 17f1 033f bd5b e43e 2686 74bd
00000110: e2d7 0dbe 68e9 c53c ae99 17bd abd1 cabc
00000120: 959d 4d3e cc3f fbbe 6650 81be 9e0b 453d
00000130: 1db0 f6bc e5a6 ecbe c623 e8bc eeef 1bbe
00000140: aa2a eb3d cb4c 963d 7e60 c8be 97c7 8d3e
00000150: c42e e03d c2ab b8bd ad84 723d d8e6 4bbc
00000160: 0fbb 2ebd 193f 39be 3cfd 22be 9f56 e0be
00000170: 69ef 083e c5c4 e7bc 0fea 653e a36c da3d
00000180: 8dff b23e e79e ab3d 8015 013e 6e5e db3d
00000190: 263c 13be 0bcd 35bf 7b89 093c 2893 b83e
000001a0: 142c 57be cf35 02bf 3643 823e 6688 70be
000001b0: 3956 223e 2e96 6cbe b71e 353f 910f e4be
000001c0: 143d cf3c 7683 263e 9e5e bbbe 0379 babe
000001d0: bb46 42be 72f8 bdbe 8dda 8c3d 2531 db3e
000001e0: b351 ac3c 91c7 67be 417b 8f3e 2465 8b3d
000001f0: f892 0fbf 5b9d 7c3e 12c2 7abe 8020 123e
00000200: f865 403e f319 99bd 2634 4b3e 3410 df3d
00000210: ae7f aebe 8bff ea3d f9f5 4e3e 023e edbe
00000220: 1cac a5be 27c1 233e e9a3 e13e 748a bc3e
00000230: 498e 85be a6e4 febd ad93 113d 37f6 9e3d
00000240: 5b02 ccbe 578c af3e b11d 16bd 910b 04be
00000250: 3c86 c1be a4cb cf3d 535b dcbd a2d1 fa3d
00000260: d6ed 173e fc2c bb3d 880e bb3b 87f7 9b3d
00000270: d935 d6be 645e 96bd a738 57be 0af3 943d
00000280: 2ed1 753e 73c7 06be dec6 e5bd 2572 26be
00000290: 08df 013e fc13 e03d 94bc eb3d be24 aebc
000002a0: 3e0d 903e 0299 88bd c00b 99be 570a 3b3e
000002b0: a8dd 0fbd e14e 2a3d a22a 973d d6e5 5cbe
000002c0: 9178 52be 9f1f 24be 97a3 9ebd b6f9 bb3d
000002d0: ec13 4fbd e3fd 283a 177a 51bd 15af 98bd
000002e0: 7fb1 cc3c 6bb4 eabd afb0 1bbe 77d1 fb3c
000002f0: 893b c1bc 21af cf3d b021 e7bd 04e8 9d3e
00000300: ff0b 11bf 89eb aa3d d6ca 6f3e 1a6b 78be
00000310: f405 58bd a8cd 923e 0d79 edbe a7ec 4a3e
00000320: 81c8 083e a383 56bd 1835 513e 1203 d53e
00000330: 33d0 173d 7890 c1be fa32 9cbe e9ca 11be
00000340: 2b2a 0abe 585a 363e fbe2 a4ba 0fc0 1abe
00000350: 4697 d03e e2e2 0cbe f6d7 353e ce3f cb3d
00000360: e79e 83be 62d4 97be 53f8 e33d c983 3bbe
00000370: adc4 c53e d0db d5be ba14 833d 0a14 1fbd
00000380: edcf 783e ebce 5d3e d820 d2bd 5eb0 3e3e
00000390: 34c3 883e daab 33be a7f3 aa3d 799b 43be
000003a0: 3264 34bd 97ab 1d3e 3274 96be ebb7 23be
000003b0: f5ad e5be 4e5d 25be 640c fe3d f2ac 1a3e
000003c0: 2afa f0bc 1ed0 0b3b 869b 043e cc12 943d
000003d0: 6f08 253e e844 59be 809a 013e 7e47 55be
000003e0: a4e7 1ebd b6aa f9bd 6b0e f2bd 1050 69bc
000003f0: 7b1e 11be 7b45 2abe decc 2cbe b497 803d
-0.32869214 -0.2613958 0.066519834 0.0874182 -0.2824315 -0.214583 0.21379732 0.4136924
0.49416372 -0.35734925 -0.16540548 0.39235714 0.17455214 -0.38950214 -0.030417701 -0.25715044
-0.1332539 0.28692874 -0.4492852 0.04733338 -0.06225331 0.03860993 0.16232322 0.092965186
-0.11265957 -0.24421439 0.068530776 0.2030731 0.34340557 0.039664797 0.3510989 -0.15410803
0.22069159 -0.22553632 0.06799276 -0.17142661 -0.25186282 0.23377882 0.47107574 0.09792843
0.40696794 -0.20640336 0.15577869 -0.21162115 0.23619574 0.46641943 -0.12168659 -0.20188047
0.19568367 -0.09544255 0.6233849 -0.12612456 -0.0861165 0.45565465 -0.27563056 -0.11912143
-0.021118848 0.46707898 0.28070912 -0.06999472 0.35559323 -0.29991847 -0.24492824 0.15351279
-0.26754588 0.5153975 0.4460124 -0.059698246 -0.13851884 0.024159148 -0.037011795 -0.02475818
0.20079644 -0.4907211 -0.25256652 0.048106782 -0.030113274 -0.4622108 -0.02833737 -0.15228245
0.11482747 0.07338866 -0.39136118 0.27691337 0.1094642 -0.09017135 0.05920856 -0.012445174
-0.04265886 -0.18090476 -0.15916914 -0.43816087 0.13372578 -0.02829207 0.22452568 0.10665252
0.34960595 0.083799176 0.12605858 0.107113704 -0.14378414 -0.71015996 0.008394594 0.3604977
-0.21012908 -0.50863355 0.25441903 -0.23489532 0.15853204 -0.23104164 0.7074999 -0.44543126
0.025297679 0.16261086 -0.36595625 -0.3642045 -0.18972294 -0.3710361 0.06877623 0.42810932
0.021035051 -0.22634722 0.28023723 0.068064004 -0.5608363 0.24669401 -0.24488094 0.1427021
0.18788898 -0.074756525 0.19844112 0.108917624 -0.34081787 0.11474522 0.20211019 -0.4633637
-0.32357872 0.1599165 0.44070366 0.3682438 -0.26085117 -0.12445955 0.035541225 0.077618055
-0.39845547 0.34286758 -0.03664941 -0.12895037 -0.37797725 0.10146263 -0.10759606 0.122470155
0.14836821 0.091394395 0.0057085194 0.076155715 -0.41837958 -0.07342222 -0.21017705 0.072729185
0.24005577 -0.13162021 -0.112195715 -0.1625448 0.12682736 0.10941312 0.11510578 -0.021257754
0.28135103 -0.06669809 -0.29891777 0.18265663 -0.035123497 0.04157913 0.073811784 -0.2157205
-0.20553805 -0.16027687 -0.07746046 0.09178488 -0.05055611 0.00064465235 -0.051141825 -0.07455269
0.02498698 -0.11460193 -0.15204118 0.030739529 -0.023587959 0.10140825 -0.11285722 0.30841076
-0.5665893 0.08345706 0.2341722 -0.24259606 -0.052740052 0.28672528 -0.46381417 0.19816838
0.13357736 -0.052371632 0.2043041 0.41603905 0.03706379 -0.37805533 -0.30507642 -0.1423756
-0.13492648 0.17807901 -0.0012579852 -0.15112327 0.40740412 -0.13758424 0.17758164 0.09924279
-0.2570717 -0.29654223 0.111313485 -0.18311991 0.38626614 -0.41769266 0.06400438 -0.03883747
0.24298067 0.21660964 -0.10260171 0.18621966 0.26711428 -0.17546025 0.08347254 -0.19102277
-0.044040866 0.15397488 -0.29385525 -0.15988128 -0.4485928 -0.16148874 0.12404707 0.15105036
-0.029416163 0.0021333764 0.12949952 0.07230148 0.16116498 -0.21217692 0.12656593 -0.20828053
-0.03879513 -0.12190764 -0.11819156 -0.01424028 -0.14171784 -0.16628067 -0.16875026 0.06278935

fc2.bias f4 [16]
00000000: 6edd 313e a742 a73d e170 923d 66fb 0e3e
00000010: efad 2a3e a5fe 4cbe c1b9 d1be 2cbc 923d
00000020: 0640 eebe 4567 cf3d 770a f1bd 9821 43bc
00000030: 8519 673e e1b3 03be d388 503e 34a1 29be
0.17369625 0.0816701 0.07150436 0.13963088 0.16667913 -0.20019014 -0.4096203 0.07164797
-0.4653322 0.10127119 -0.11769574 -0.011909865 0.22568329 -0.12861587 0.20364694 -0.165654

fc3.weight f4 [16, 16]
00000000: 2308 8e3e a56e 0a3e 2da9 c3bd b896 723e
00000010: 7306 8fbd 839a ed3d 7e7a 203f 6c89 3e3d
00000020: e6c1 363e 9c2a e3bd 8083 dc3d 3910 1cbe
00000030: 7402 29be 8c2b e33c 42da 8bbe 95fd 233e
00000040: d6bd c83d 0d8b 8b3d 254a a6be 9236 95be
00000050: c469 693e 5861 2f3e 941c 13bd 753d f8bd
00000060: 8a36 3b3c 8a9b 58be dfe3 cc3d 3371 efbd
00000070: f71b 7dbd 1334 993e 8a04 1f3c f893 44be
00000080: e62d 483d 4222 fa3e ebd0 ad3e 645e efbd
00000090: cdd0 8d3d 7327 90be 2fde a4be 591c e33d
000000a0: dd03 233e a9c3 bfbd dde7 813e ce72 983d
000000b0: 9846 523e 42e5 85be 4046 9cbc 055c 33be
000000c0: 6b4d 493d 0744 5f3e b1ea 803e 7be2 7e3e
000000d0: e965 cdbe c7e1 fb3d 2aa6 81be 3d02 c43e
000000e0: d170 b3be 0a8c 8abd b357 593c 8e7b 723e
000000f0: f71e ab3e 0b93 05be aaad a9bd 6299 69be
00000100: c619 543d 3064 15be c8e3 833e 50b5 453e
00000110: 0222 aebd 7468 f7bd bb5e 26bd 358d 1fbb
00000120: 6ea9 23be 2ca1 e83d 1e5f a43d ffb6 4d3d
00000130: 56d9 c8bd 80dc 0bbe c116 34be 1594 b6bd
00000140: c89a 82be cd0a 903e aa7d 69be e1df 193e
00000150: cf01 a93e b89c b93d fe95 a03d 0aff 253b
00000160: d9e5 483d f27e 5e3d c5de 76be 9e50 b73b
00000170: 2e26 563e fe6b fcbd 5630 3abe 911b 773e
00000180: 8c46 d2bd dd96 24bd 0d99 11be 7b71 373e
00000190: d2be 36bc c83e 453e bef5 b9be 1fee cebd
000001a0: fb4e 2d3e 3586 29be e18d d83d a482 05bc
000001b0: 565b 84bd e543 d83e 8e36 84be 2d18 a5bc
000001c0: e410 db3e b542 383e bfe2 b5be bd4e 80be
000001d0: 9137 a73e 58d6 adbe a08e 023e ab79 6dbe
000001e0: 248e 203e b367 673e 610d 643d 4b73 263e
000001f0: 1733 1f3d ed5d 8dbd 7b5c ce3b 442e 4dbe
00000200: e934 b8bd f9df a1bd c373 193e c445 20be
00000210: 7d9f fb3c cfec 5e3e 0686 5bbe 6dfc 2d3e
00000220: a474 20be 5541 4ebe 8186 1a3e 4c15 92bc
00000230: a3ef 413c 7d8d 82be 05cf e53c 5b8e 09be
00000240: 8c35 1ebf 7268 923b c248 c7be ef41 3a3e
00000250: 0082 8bbc c2f5 6cbe d44a d8be e5f1 a13e
00000260: 28ca 27bf ab00 cf3e 8732 2e3d f0b2 263d
00000270: 32fe dd3e fac8 723e dadc 3fbe b311 073e
00000280: 69a7 0cbe 5322 3fbe 43fe 60be c95f 173f
00000290: 1226 84be 1fdf b93c 3bc2 8e3c 5488 a03e
000002a0: ae88 fabe cc60 da3e b485 84bc 8841 62be
000002b0: 0bf8 ed3e 860f e0bc 5c8e 79be f6b2 d83d
000002c0: e62e 413d 869f e03b fc7c 66be 8bfc a13e
000002d0: 2607 b63e 95d3 e7bd f00d 81be 5a90 aabe
000002e0: ea7f 5fbe 7af3 113e 2592 673e ab31 0fbd
000002f0: a89d 383e 519b af3e 95fe 89bd 032d c8bd
00000300: a155 03bc 66df 04bd a097 5ebc 34a4 a8bd
00000310: 8132 c9bd 1c5b a93e f327 c43e 7043 e13e
00000320: 1902 9e3d 0ec9 833e 9154 91be 18f7 b5bd
00000330: c469 04bf cc1e 603e f56e 83bc 525c 073d
00000340: fc28 d63e 9d94 cabe 4e2e a23d 275a a73d
00000350: 08f8 f03e 5aec 693d 5ba0 253e 8685 49be
00000360: a6b4 583d ecf0 943e 6382 9d3a 42a5 8fbe
00000370: 94b1 00bd 8ad6 6bbe 62f0 f33e a087 10be
00000380: e851 05bd 2842 933e 7907 a7be d865 c6be
00000390: 4999 77bb 4033 6b3d 4dd2 033f c4b7 0cbe
000003a0: e0d0 73bd 157b 96bc c4fa 053e f52b 3b3e
000003b0: 9d89 4a3e 2464 9f3e d3ce cc3d 4632 c23d
000003c0: e3a1 74be c1e6 983e 7a80 13be 3df3 c93d
000003d0: 3c20 edbd 0c38 5b3e 0321 ddbc f516 353e
000003e0: 061a d73d 9c8c 52be 8856 8e3e 689f 183e
000003f0: 7541 e53d 1a0b 323e 3149 193e 4188 a8bd
0.27740583 0.1351877 -0.09553752 0.23690307 -0.06983652 0.116017364 0.6268691 0.046517774
0.17847404 -0.110921115 0.10767269 -0.15240563 -0.16504842 0.027730726 -0.27314955 0.16014703
0.09801833 0.06813631 -0.32478443 -0.29143196 0.22794253 0.17126977 -0.035915926 -0.12121097
0.011426577 -0.21153083 0.100044005 -0.11691513 -0.061794247 0.29922542 0.009705672 -0.1919707
0.048871897 0.48854262 0.33948454 -0.116879255 0.06924591 -0.28155097 -0.32200763 0.11089391
0.15919442 -0.09363491 0.2537221 0.07443772 0.20534742 -0.26151472 -0.019076467 -0.17515571
0.049146097 0.21803294 0.25179055 0.24891083 -0.40116814 0.12298923 -0.25322086 0.38282958
-0.3504701 -0.067649916 0.013265538 0.23679945 0.33422062 -0.13044374 -0.08285077 -0.22812417
0.051782392 -0.14589 0.2575972 0.19307446 -0.0850258 -0.1208047 -0.040617686 -0.002434564
-0.15982601 0.11358866 0.08025955 0.050223347 -0.098070785 -0.13658333 -0.17586805 -0.08914963
-0.25508714 0.2813324 -0.22801843 0.1502681 0.33009192 0.09063095 0.07841109 0.0025329017
0.049047325 0.054320283 -0.24108417 0.005594327 0.20913002 -0.123252854 -0.18182501 0.2413161
-0.10267362 -0.040182937 -0.1421854 0.17914383 -0.011153894 0.1926223 -0.363203 -0.10104012
0.1692466 -0.16555102 0.10573936 -0.008148823 -0.064627334 0.422393 -0.25822872 -0.02015313
0.42786324 0.17994197 -0.35524556 -0.25060073 0.3265958 -0.33952594 0.1274972 -0.23190944
0.15679222 0.22598152 0.05567682 0.16254918 0.038867082 -0.069026805 0.0062976456 -0.2003718
-0.08994467 -0.079040475 0.14985566 -0.15651613 0.030715698 0.21770023 -0.21437845 0.16990824
-0.15669495 -0.2014211 0.15090372 -0.01783242 0.011836919 -0.25498572 0.028052816 -0.1343321
-0.61800456 0.0044680173 -0.38922697 0.18189214 -0.017029762 -0.23140624 -0.4224459 0.31629863
-0.6554284 0.40430197 0.042528655 0.04069799 0.43357998 0.23709479 -0.18736592 0.13190345
-0.13735737 -0.18665437 -0.21971993 0.5913053 -0.25810295 0.0226894 0.0174266 0.3135401
-0.48932403 0.42651975 -0.016177036 -0.2209531 0.46478304 -0.027351152 -0.24370712 0.10581009
0.047163866 0.006854954 -0.22508615 0.31637987 0.3555233 -0.11319653 -0.25205946 -0.33313257
-0.21826139 0.14253035 0.22614343 -0.034959476 0.18028891 0.34298185 -0.06738011 -0.0977421
-0.008016021 -0.03243961 -0.013585955 -0.08234444 -0.09824086 0.33077323 0.3831173 0.43996763
0.07715244 0.2573933 -0.28384832 -0.0888502 -0.51723886 0.21886748 -0.01604412 0.033047028
0.41828144 -0.39566508 0.07918988 0.08171492 0.47064233 0.057110168 0.16174452 -0.19679841
0.052906655 0.2909006 0.0012017008 -0.2805577 -0.03141935 -0.23031059 0.47644335 -0.14114237
-0.032548815 0.2876141 -0.3262289 -0.38749576 -0.0037780574 0.057421923 0.5149277 -0.13741976
-0.05952537 -0.018369237 0.1308394 0.18278487 0.19779058 0.3113109 0.10000386 0.09482245
-0.2388988 0.2986355 -0.14404479 0.09860847 -0.11578414 0.21408099 -0.02699328 0.17684539
0.105030105 -0.2056145 0.27800393 0.14904559 0.111941256 0.17387047 0.14969327 -0.08229113

fc3.bias f4 [16]
00000000: a4a8 dabe 4969 3e3e 45b6 b93e 453d 923e
00000010: eaf1 80be ffc7 2cbe c83b 053e d110 9b3c
00000020: 6fcf ba3d 2f79 a03e 634b 553e 1667 2bbd
00000030: 2fe2 8abe 05a8 f73e fa81 a1be 084a 50bd
-0.42706788 0.1859485 0.36271873 0.2856237 -0.25184566 -0.16873167 0.13011086 0.018928917
0.09121596 0.31342456 0.20829539 -0.041846357 -0.2712569 0.48370376 -0.31544477 -0.05085185

fc4.weight f4 [6, 16]
00000000: 510f ce3d e580 903b a9c2 7ebe ca8b 0abf
00000010: 3d17 8bbe 008e 39bd ad57 de3e 4ca7 9a3d
00000020: 763b 72bd 9e98 56be 9ade 753e dc5c ae3e
00000030: cb73 60bd 72ce 0b3f c9ae c1be d203 49be
00000040: 70d2 833e d91b 76be ea64 7d3e cbd6 39bd
00000050: c87d 573e 4630 d13d 7ba4 b7be 0b88 bebe
00000060: cc6f 823d 2489 16bf d5f3 793b f224 86bc
00000070: cb40 41bd c3af 843e 5205 6a3e e041 953d
00000080: 19a6 babe 66fb 97be 4c3d b2be b8f3 9f3e
00000090: b005 6a3e c0d8 d2bd af3b b23d 28f0 39be
000000a0: 2e2d 70be 0000 643f 5656 353f b112 9d3d
000000b0: 0a42 053f a57e 0bbf b178 98be 0326 ecbb
000000c0: 8835 d2be b882 e53d c45b 433e a6ee 2cbe
000000d0: 5551 08be ede1 8f3e f871 09be 3051 c53e
000000e0: 1670 e33d 9f70 723e 1610 eebe 4ef8 d63e
000000f0: 3b8e f6be 11a4 bdbd d571 293d f79c ad3e
00000100: 1536 a9be 2dcc 1d3e e9bd 873e 5719 a23e
00000110: 6a5e 95bc 2ea1 87be 2a99 13be 4be1 b63e
00000120: 2f5a 27be 7f83 e9be aff5 2bbe 8e7d 5cbe
00000130: 03b3 d93c 821d 453e 6ebe 94be 0b59 c03d
00000140: 21fd e23e bf19 863e 88cb dbbe 0e69 e2be
00000150: e112 b93d 0d9c a13d ed5f c43a 57d3 9abe
00000160: 43e2 2f3e 0bb2 333e b37f acbe 5b2a 9ebe
00000170: 0028 e83e 30c9 08bf 2a4a fa3e f573 943e
0.10061515 0.0044098967 -0.24878944 -0.5411955 -0.27166167 -0.045301437 0.43426266 0.075514406
-0.059138738 -0.20956656 0.24010697 0.3405522 -0.05479793 0.54611886 -0.37828663 -0.19630364
0.2574649 -0.2403406 0.24745527 -0.04537086 0.21044075 0.102142856 -0.35867676 -0.37213168
0.0636898 -0.5880301 0.003813972 -0.016375039 -0.047180932 0.25915346 0.22853592 0.07287955
-0.36454847 -0.2968399 -0.3481239 0.3124063 0.22853732 -0.10295248 0.0870279 -0.18158019
-0.23454735 0.890625 0.70834863 0.07669581 0.5205389 -0.5449012 -0.2977958 -0.00720668
-0.41056466 0.11206573 0.19077975 -0.16887912 -0.13312276 0.28102055 -0.13422382 0.38538504
0.11105363 0.23675774 -0.46496648 0.41986316 -0.48155388 -0.09259809 0.041368324 0.33908817
-0.33049074 0.15409918 0.26512077 0.31659958 -0.018233497 -0.26490158 -0.14413896 0.3571876
-0.16342996 -0.45608136 -0.1679294 -0.2153227 0.026574617 0.19249538 -0.29051536 0.093919836
0.44333747 0.26191518 -0.4292872 -0.44220775 0.09036804 0.078910924 0.0014982201 -0.30239365
0.17176156 0.17548387 -0.33691177 -0.3089169 0.45343018 -0.5343199 0.48884708 0.28994718

fc4.bias f4 [6]
00000000: 9274 a83e 3ad6 d6be 57dd 69be 620a ad3e
00000010: 6914 cf3e dd0f 2fbf
0.32901436 -0.41960317 -0.2283834 0.33796984 0.4044526 -0.6838358
